my_model.tflite (tflite, 32472 bytes, 2 tensors)

sequential/dense/BiasAdd/ReadVariableOp f4 [10]
000000 91 99 e9 3d df a3 08 3e 42 0a 07 3e e1 51 f8 3d
       0.114062436 0.13343762 0.13187507 0.12124992
000010 99 70 fd 3d e2 51 f8 3d ad 1e f5 3d 33 33 03 3e
       0.12374992 0.12124993 0.119687416 0.128125
000020 5d 66 f6 3d d8 7a d4 3d
       0.12031243 0.10374993

sequential/dense/MatMul f4 [10, 784]
000000 cd e3 87 3d 1c 8c f5 bc 31 3c 82 3d c1 29 8b 3d
       0.066352464 -0.029974036 0.06359137 0.06795073
000010 a1 04 9d bd 08 a2 07 3c 28 9e 27 bd 4a c1 49 3d
       -0.076668985 0.008278377 -0.040922314 0.0492566
000020 c8 08 c7 bc c8 f9 05 bd b0 e9 b1 3c f9 63 85 3d
       -0.02429618 -0.032708913 0.021717876 0.06513209
000030 cc 7f 9a bc 45 25 8c 3d 9f ea a5 3d eb d8 8f 3d
       -0.018859766 0.06843046 0.08101391 0.07023796
000040 79 e8 83 3d ff 57 a1 3d 6e d5 71 bd f7 1c 8b 3d
       0.06440825 0.07878112 -0.059041433 0.06792634
000050 9c 81 8f bd d0 bc b7 3b 09 d1 24 bd 98 db af 3c
       -0.07007143 0.005607225 -0.040238414 0.021467015
000060 42 53 4b 3d 76 f2 93 bd 80 75 13 bb 73 a5 a2 bd
       0.049639948 -0.0722398 -0.0022500455 -0.07941713
000070 1d ca 98 bd cd 32 51 bd a6 4d 23 3d 4b 36 9e 3d
       -0.07460425 -0.051073838 0.039868973 0.07725199
000080 a1 ff 24 bd 4c 4b f5 3c 9c 24 e5 3c 3e 12 35 bd
       -0.04028285 0.02994313 0.027971558 -0.04420685
000090 f1 16 32 bd 4b 74 4c bd 92 84 6b bd 4a ea 71 3d
       -0.04347891 -0.049915593 -0.057499476 0.059061326
0000a0 cc 2c cc bc e8 bf ca bc e1 2f a2 3d 6a 58 d7 bc
       -0.024923705 -0.024749711 0.079192884 -0.026287276
0000b0 23 2f a7 3d e9 7e a6 3d 8e dd 70 3d 40 2c d6 3c
       0.081632875 0.08129675 0.05880504 0.026144147
0000c0 5e 9c 61 3d 6f cd 98 3d 64 61 9b bd 8c d6 c9 3c
       0.055080764 0.07461058 -0.07586935 0.024638437
0000d0 c4 80 79 bd 80 52 98 3c 74 5d a3 bd 40 72 15 3b
       -0.060913816 0.018594027 -0.07976809 0.0022803694
0000e0 d8 33 a4 bc 21 74 8e 3d 80 32 c1 ba 4f 04 23 bd
       -0.020044252 0.069557436 -0.0014739782 -0.03979903
0000f0 f7 07 73 bd b4 2c b7 bc 80 0f 37 bc 9d 91 ac bd
       -0.059333768 -0.022360183 -0.011173129 -0.08426211
000100 a0 cd 36 bd 9a b3 1b 3d 99 08 69 3c 57 6b f8 bc
       -0.044629693 0.03801308 0.014223241 -0.030324621
000110 73 e2 34 bd 4e ca f6 bc bc 40 27 3d 44 eb 55 bd
       -0.04416127 -0.030125763 0.04083322 -0.05222632
000120 b4 4d 09 bc 30 22 86 3c 83 94 55 bd 04 4e ac bc
       -0.008380342 0.016373724 -0.052143585 -0.021033294
000130 4e 67 0f 3d 80 25 9c bc e3 59 ab 3d 0e 9a 24 3d
       0.03501063 -0.01906085 0.08366754 0.04018598
000140 bc 93 bb 3c ff 63 50 bd a2 4c de bc 22 e6 05 3d
       0.022897594 -0.050876614 -0.02713615 0.032690175
000150 aa c9 26 3d 2a 52 55 3d ad be 88 3d 72 c2 5e bd
       0.040719666 0.05208031 0.066769935 -0.054384656
000160 80 bd 96 3c 80 2e ad bd a0 85 4f 3c d0 97 04 3c
       0.018400908 -0.08456135 0.012666136 0.008092836
000170 b2 5e 68 3d 76 ab e5 bb e3 78 39 3d 2d ce a0 ba
       0.056730933 -0.007008965 0.045281302 -0.0012268476
000180 ee 04 63 bc 0c cb 21 bd 59 19 f3 3c 9a cf 34 3d
       -0.013856156 -0.03950028 0.029675173 0.044143297
000190 0d 74 89 bd 66 a0 37 bd b2 7a 69 3d 00 5d 21 bc
       -0.06711588 -0.044830702 0.057001777 -0.009848833
0001a0 f9 43 63 bd 20 77 57 bd d8 a2 9c bc 04 6b 7a bd
       -0.055484746 -0.05260384 -0.019120619 -0.061137214
0001b0 ca a7 80 3d 0e 19 1e 3d 50 fa bb 3c c8 6e 0c bd
       0.06282003 0.038598113 0.022946507 -0.034285337
0001c0 85 bc 7e bd 1e 3a 49 bd 43 4f a9 3d ea bd ed bc
       -0.062191505 -0.04912769 0.08267071 -0.029021222
0001d0 44 ed 6d bd f0 41 ba 3c 56 87 b1 bd 21 07 3f 3d
       -0.058087602 0.02273652 -0.086683914 0.046637658
0001e0 13 ad 80 bd 56 43 ab bc 42 4d e9 bc 73 4c 13 3d
       -0.06283011 -0.020906132 -0.028479222 0.03596158
0001f0 38 96 21 bc fb e6 bf 3d 7e 99 ab 3c 57 f3 93 bc
       -0.009862475 0.09370228 0.020947214 -0.01806037
000200 89 40 42 bd 0c 98 16 3c 26 09 36 bc b4 4f 85 bd
       -0.047424827 0.009191524 -0.01111058 -0.06509343
000210 93 ea da bc ef b5 8d bd 56 f1 ac 3c 0c df 8d bd
       -0.026723182 -0.06919467 0.021111172 -0.069273084
000220 78 27 ac bd b3 7a ae bd b1 95 8a 3d 7e 7b 57 bd
       -0.084059656 -0.08519497 0.067668326 -0.052608006
000230 6a 81 48 bd 80 a8 64 3c 00 2d 6c 3a 27 4e 95 3d
       -0.048951544 0.013956189 0.0009009391 0.07290297
000240 50 91 ba bb 4d c0 96 3d 35 61 81 bd 63 11 12 bd
       -0.005693592 0.07360897 -0.06317369 -0.035661113
000250 49 75 5d 3d f5 b3 e1 bb 1a 6d 3c 3d b6 33 64 bc
       0.05406693 -0.0068879076 0.046002485 -0.0139283445
000260 79 d3 0a 3d d5 bc cb 3b f2 5a be 3d 5f 6e 39 bd
       0.033893082 0.006217579 0.0929469 -0.045271274
000270 f3 48 a3 3d 87 29 ed 3c f0 4f 87 bc 8b d8 2c bc
       0.07972898 0.028950466 -0.01651761 -0.010549675
000280 17 f1 99 bc 16 ea e1 bc b2 9a 19 3d 74 b7 c3 3c
       -0.018791718 -0.027577441 0.037501045 0.023891188
000290 2c b6 36 bd d5 64 9a bd 78 82 8f bc be 03 38 3d
       -0.044607326 -0.075387634 -0.017518267 0.044925444
0002a0 c4 7b e0 bc bd 9e 8c 3d 8c 83 aa bc 29 54 96 3d
       -0.027402766 0.068662144 -0.02081468 0.07340271
0002b0 a8 38 94 3c f2 49 46 3d 4e 4a e3 3c 6e 08 18 3c
       0.018093422 0.048410363 0.027745392 0.009279354
0002c0 da ad e5 bc 74 3f 1f 3d ec 98 61 bc 20 45 2b bd
       -0.028037 0.038878873 -0.01376937 -0.04181397
0002d0 bd a4 02 3d aa 0e 49 bc 40 28 a0 3d b7 29 9f 3d
       0.031895388 -0.012271563 0.07820177 0.07771628
0002e0 36 66 54 3d 87 bf 1b bc 1b 0d ed 3c a2 6d 77 bd
       0.05185529 -0.009506113 0.028936913 -0.06040729
0002f0 a8 88 8c 3d 05 29 51 bd ca bf a0 3c 38 d2 2b bd
       0.068620026 -0.05106451 0.019622702 -0.041948527
000300 bc 8a 4c 3d 19 ba a4 3d 0a 5f a6 bd 2a 8c 63 3d
       0.049936995 0.08043308 -0.08123596 0.055553593
000310 00 33 33 ba 88 f0 e3 bc be 96 73 3d de f8 70 bd
       -0.00068359077 -0.027824655 0.05946993 -0.05883109
000320 b6 63 1f bd 43 8b a4 3d 78 c3 ac 3d 2f e5 9c bd
       -0.03891345 0.080343746 0.0843572 -0.07660901
000330 16 6c a7 3d b7 9b 85 bd 2b 66 37 bd 9b e1 68 bd
       0.08174913 -0.06523841 -0.04477517 -0.05685578
000340 1b ae 96 bb a9 ca 16 3d ff da df bc 91 55 ce 3d
       -0.0045983917 0.036814366 -0.027326105 0.10074914
000350 bc 1e 19 3d d7 37 0c bd c0 e8 df 3d 87 66 b1 39
       0.037382826 -0.03423294 0.109330654 0.0003383646
000360 82 aa 0d bc d6 64 87 bd 37 8d 0d 3d c5 ca 80 3d
       -0.008646609 -0.0661103 0.0345585 0.06288675
000370 e1 24 9f 3d bc 04 89 bc 36 af 69 3d 74 39 a5 bc
       0.07770706 -0.01672589 0.05705186 -0.020168997
000380 50 ae 88 bd 18 a2 af bc 0a 0d 74 3d 47 5f 82 bd
       -0.066738725 -0.021439597 0.059582748 -0.06365829
000390 1e 34 e0 bc cb da b8 3d 30 3a 48 3d 53 68 0c 3b
       -0.027368601 0.090261064 0.048883617 0.0021424487
0003a0 40 a1 24 3d cf 96 6d bd d2 fe 02 3d 14 05 80 bc
       0.040192842 -0.05800515 0.031981297 -0.015627421
0003b0 dc 13 c9 bc 2c 0e dd b8 c2 6d b6 3d 3d 25 33 3d
       -0.024545603 -0.00010540741 0.089076534 0.043736685
0003c0 c5 bd 43 3d d2 dd 2c 3d d6 4e 6b 3d 15 55 d8 3d
       0.0477884 0.04220373 0.05744823 0.10563103
0003d0 14 f8 15 3d 23 a8 80 bd 5e ed 82 3d 3e 9f 43 3c
       0.03661354 -0.062820695 0.063929304 0.011939822
0003e0 d7 9c 90 3d 1f fa 82 bd f6 be 8a bd 54 a6 bf 3c
       0.07061165 -0.06395363 -0.06774704 0.023394741
0003f0 80 bf f0 bc d2 a8 33 3d 56 94 20 3d 7f 03 06 bd
       -0.02938819 0.04386217 0.039203964 -0.032718178
