svm_model.tflite (tflite, 263436 bytes, 1 tensors)

sequential_18/dense_19/MatMul f4 [1, 65536]
00000000: fe25 37bb ce89 8dbb b338 aabb b7d0 0cbb
00000010: fcba a3bb 11d1 83bb cb27 bdbb 873a 76bb
00000020: dfc9 b3bb 9a0e b1bb a9d3 a4bb e3cd bebb
00000030: 0d16 9fbb 6af7 9bbb 61d3 0dbb 8bda c0bb
00000040: 7b55 89bb ed0c 0ebb 5383 5fbb bc60 bebb
00000050: 1ce9 bcbb eb1c 3abb 4bae 8abb 2a6f b0bb
00000060: 4caa babb b05c 33bb 0bb7 3fbb 1ed8 9dbb
00000070: ffbd 4bbb ae04 a6bc 0625 abbc 72dc b3bc
00000080: a1c5 b1bc 9b28 a1bc d175 adbc b0df aabc
00000090: 0f80 94bc adc2 aebc 5d34 b6bc be1f 9dbc
000000a0: c3b0 98bc d489 98bc 50ca 9fbc 972a b8bb
000000b0: f330 e3ba c54c 42bb 5ae3 c8bb 5ca6 a7bb
000000c0: 8ac9 9bbb 2f49 9dbb 8003 39bb deb1 c4bb
000000d0: 3aa4 48bb 9791 c1bb 426a dfba 6650 c1bb
000000e0: 78a3 65bb 7cfb 2bbb f167 a8bb a746 20bb
000000f0: 39a9 c5bb c68b 34bb d65f 1cbb dab3 96bb
00000100: 8990 a5bb a82a 9dbb cd4b 18bb 5829 a5bb
00000110: 3abc a1bb 72b8 adbb 2282 14bb 2484 c3bb
00000120: 0859 86bb a06c b5bb e1e9 8abb 1610 c6bb
00000130: 6cac 88bb df9f a1bb 1608 e8ba adb7 a9bb
00000140: 4be6 9fbb 873b 90bb 61df c4bb 1c72 75bb
00000150: 9722 38bb f235 7ebb 2cd8 f1ba 8a15 36bb
00000160: ad72 8abb 6661 9abb 7cc8 deba 9d3a 4abb
00000170: d7e7 bebb 402e 09bb 4b13 93bb ced8 f1ba
00000180: d565 f6ba 8502 84bb bd95 68bb ddcd 7bbb
00000190: e392 94bb ae05 9dbb d164 bebb 9506 b1bb
000001a0: 9bf2 9bbb 9ded 26ba e8f7 7bbb 3d09 60bb
000001b0: 84a9 8eba 5f52 2cbb ce38 4abb 9184 3239
000001c0: a595 293b 2dea 413a 1e7f 363b 3ce9 40ba
000001d0: 5c09 f239 9558 2fb8 b7e6 993a 4e53 343b
000001e0: 3986 d73a 023f b13a 636a 453b c546 413b
000001f0: 0a7d d5b8 5c04 203a 02d4 5aba b8ee 193b
00000200: ff2c 9e3b 010c 023c 069d aa3b adf0 acbb
00000210: 2d75 8abb 3798 dbba 5cdd 8abb 33c4 9cbb
00000220: 39e0 b8bb f6bf babb d7c2 82bb 1c82 3abb
00000230: c1e4 76bb 583f 8bbb 1ded a0bb 841c 13bb
00000240: 0cb7 80bb 7365 afbb 718b 68bb e7bf adbb
00000250: 89d9 b4bb 64ee 28bb bded 2fbb 10e1 a1bb
00000260: 6d78 6bbb 2d3c 9abb 3a4b b9bb 5756 92bb
00000270: e477 11bc b895 f0bb 2926 04bc bafb b5bb
00000280: 09cd 0ebc caed d5bb 59e0 c2bb cd9d 60bb
00000290: 2678 d8bb 8529 72bb b8bc d3bb 93bc 56bb
000002a0: 34f1 43bb 025d b9bb 3ffa 8bbb 5796 59bb
000002b0: f428 8dbb 4466 9cbb fc74 8cbb fe86 40bb
000002c0: 0466 91bb ebe4 4ebb c8f4 9abb 249b b6bb
000002d0: a983 75bb f064 d8bb d8a6 44bb 7c71 2abb
000002e0: cc00 69bb ed51 e6ba ce1b 61bb d337 96bb
000002f0: 896e 8fbb 0dfb 07bb 5ef6 6cbb a17d 57bb
00000300: 8a20 78bb e5da 01bb 7832 2ebb 78a5 55bb
00000310: 79b0 80bb 9720 a1bb 206b 24bb e0d1 00bb
00000320: fa00 a5bb c157 51bb a6f0 ddba 8ae6 66bb
00000330: 9b26 8cbb 62aa 8dbb 88f6 b0bb a549 bebb
00000340: 1a5d a1bb 16b0 9dbb a362 9bbb 820a 8ebb
00000350: 0479 8abb c2d6 ecbb 593b f5bb a26d a1bb
00000360: 8c37 afbb aa5a c1bb 29c7 f5bb 92d8 85bb
00000370: 33f3 00bc 58a0 babb 7389 06bc 596e c7bb
00000380: 0e0b efbb e358 aebb b0c2 d8bb 6e6a adbb
00000390: 9ddf 78bb 6cd5 6fbb 74db 77bb 81e1 4cbb
000003a0: 311b 21bb 04f9 37bb 151a 06bb d634 3abb
000003b0: 8304 97bb aee3 0dbb 81e1 68bb 5efc c2bb
000003c0: d29c c3bb 1b9a 14bb 3bde b7bb 8ecd 19bb
000003d0: f984 94bb 7f0b 53bb 02e7 74bb 18ee 85bb
000003e0: b593 c2bb 32f6 75bb 2c47 a8bb 5661 bdbb
000003f0: a259 87bb aa4d 12bb 2c53 4abb e3b3 46bb
-0.002794623 -0.004319406 -0.0051947474 -0.0021486708 -0.0049966555 -0.0040227254 -0.005772566 -0.0037571506
-0.0054867114 -0.005403352 -0.0050301147 -0.0058228835 -0.0048549236 -0.0047597187 -0.0021640884 -0.0058854274
-0.0041910983 -0.0021675185 -0.0034105375 -0.0058098715 -0.0057650935 -0.0028398584 -0.004232203 -0.0053843455
-0.0056965705 -0.0027368478 -0.002925339 -0.004817023 -0.0031088588 -0.020265903 -0.020891678 -0.021955702
-0.021700682 -0.019672683 -0.021174343 -0.020858616 -0.01812747 -0.021333063 -0.022241766 -0.019180175
-0.018638974 -0.01862041 -0.01950565 -0.0056203115 -0.0017333314 -0.002964781 -0.006130618 -0.005116267
-0.00475425 -0.004799984 -0.0028230846 -0.0060026487 -0.0030615465 -0.0059072482 -0.0017045217 -0.005899477
-0.0035040062 -0.0026242426 -0.005139344 -0.0024456175 -0.006032136 -0.0027549132 -0.0023860834 -0.0045990767
-0.0050526303 -0.004796345 -0.002323854 -0.005040329 -0.0049357684 -0.0053015286 -0.0022660573 -0.00596668
-0.004099969 -0.0055366307 -0.0042393063 -0.006044398 -0.004170945 -0.004932388 -0.0017702605 -0.0051793666
-0.004879748 -0.0044016275 -0.006008074 -0.0037452048 -0.002809679 -0.0038789478 -0.0018451265 -0.0027783834
-0.004225096 -0.004711318 -0.0016997005 -0.003085769 -0.0058259773 -0.0020932108 -0.004488384 -0.0018451454
-0.0018798659 -0.0040286207 -0.0035489642 -0.0038422265 -0.004534112 -0.004791937 -0.005810358 -0.005402396
-0.0047591454 -0.00063678046 -0.0038447324 -0.0034185194 -0.001088426 -0.0026294214 -0.0030856612 0.00017024788
0.0025876549 0.00073972606 0.0027846764 -0.00073589734 0.0004616481 -4.180575e-05 0.0011741732 0.0027515474
0.00164432 0.0013522806 0.0030123226 0.0029491645 -0.00010179922 0.0006104165 -0.00083476317 0.0023488235
0.0048271413 0.007937432 0.005206707 -0.005277714 -0.004225394 -0.0016753738 -0.004237814 -0.004784131
-0.005641964 -0.005699153 -0.003990512 -0.00284589 -0.003767297 -0.0042494945 -0.0049110786 -0.0022447417
-0.003928071 -0.00535267 -0.0035483504 -0.0053024176 -0.0055190963 -0.0025776858 -0.0026844584 -0.0049401596
-0.0035929934 -0.0047068805 -0.0056547197 -0.004465859 -0.008878682 -0.0073420666 -0.008065739 -0.00555369
-0.008715876 -0.006528591 -0.0059471545 -0.0034273744 -0.0066061197 -0.0036951017 -0.006461706 -0.0032766208
-0.0029898407 -0.0056568393 -0.004271775 -0.0033201182 -0.0043078605 -0.004772933 -0.0042864066 -0.0029377337
-0.00443721 -0.0031569551 -0.004728887 -0.0055726934 -0.0037462509 -0.0066038296 -0.0030006673 -0.0026007583
-0.0035553453 -0.0017572023 -0.0034348848 -0.0045842915 -0.0043771905 -0.0020749003 -0.0036157588 -0.0032881277
-0.0037861192 -0.001981431 -0.0026580375 -0.0032599848 -0.003927287 -0.004917215 -0.0025088266 -0.0019656345
-0.005035517 -0.0031943175 -0.0016932681 -0.0035232627 -0.004277063 -0.0043232897 -0.0054004826 -0.005807119
-0.0049244286 -0.004812251 -0.004741983 -0.0043347487 -0.004225852 -0.0072277496 -0.0074838814 -0.0049263993
-0.005347198 -0.0059007006 -0.0075005484 -0.004084655 -0.007870483 -0.005695384 -0.008211481 -0.0060861525
-0.007295019 -0.0053206547 -0.0066150054 -0.0052922284 -0.003797508 -0.0036595715 -0.0037820013 -0.003126234
-0.0024582858 -0.002807201 -0.0020462323 -0.002841284 -0.004608692 -0.00216506 -0.0035534801 -0.0059504947
-0.005969622 -0.0022674862 -0.0056112087 -0.0023468467 -0.004532453 -0.0032202897 -0.0037369137 -0.004087221
-0.005938018 -0.0037530777 -0.0051354375 -0.0057794256 -0.004130558 -0.0022324123 -0.0030872328 -0.0030319623
